model/model/model_weights.pth (torch, 25676 bytes, 11 tensors)

module.lstm.weight_ih_l0 f4 [64, 1]
0	0x3e710fe3	0.23541217
1	0x3d426194	0.04745634
2	0xbd9188fc	-0.07106206
3	0xbdaf5cbf	-0.08562612
4	0x3d37ea7f	0.044901367
5	0x3e88fe05	0.26756302
6	0xbd6e57a7	-0.05818906
7	0xbe1768b2	-0.14786032
8	0x3d1a0e9f	0.0376116
9	0x3ea4c674	0.32182658
10	0x3e1b4830	0.15164256
11	0xbdc17579	-0.09446234
12	0x3e1f1c59	0.15538158
13	0xbd838593	-0.06421962
14	0x3e40df25	0.18835123
15	0xbdb0a3e3	-0.08625009
16	0x3ddef4f2	0.10886563
17	0xbe17855c	-0.14796966
18	0x3ebb58b4	0.36591113
19	0x3cb6d880	0.022320032
20	0x3de97860	0.11399913
21	0x3e425eaa	0.18981424
22	0x3db0f883	0.0864115
23	0xba8dc238	-0.0010815328
24	0x3dd67eca	0.10473402
25	0x3ec15522	0.37760264
26	0x3d3d0ad3	0.0461529
27	0x3e6a95d1	0.22908713
28	0x3eb1138a	0.3458522
29	0x3eb26eaa	0.34850055
30	0x3e7b071d	0.24514432
31	0x3caef630	0.021357626
32	0xbd3c4ef6	-0.04597374
33	0xbe9cdd99	-0.30637816
34	0x3ea9fcb2	0.33200604
35	0x3e8e7e76	0.27830857
36	0x3e95bec7	0.29247114
37	0xbe280954	-0.16409808
38	0xbdf0788c	-0.117417425
39	0xbdd2bd6b	-0.10290035
40	0x3de2bf37	0.110716276
41	0x3e3f4877	0.18679987
42	0x3e73280d	0.23745747
43	0xbdd54971	-0.104143985
44	0xbea535af	-0.3226752
45	0x3e506aa1	0.20353176
46	0xbe4fa351	-0.20277144
47	0x3d5b959b	0.05360947
48	0x3e3f68d9	0.1869234
49	0x3e752bff	0.23942564
50	0x3eb3a271	0.3508487
51	0x3c026504	0.007958654
52	0xbd2d52f2	-0.04231543
53	0x3e40a0d0	0.18811345
54	0xbe13d570	-0.14436889
55	0xbe2750f9	-0.16339482
56	0xbde872cd	-0.113500215
57	0x3db5f151	0.08883918
58	0xbe164793	-0.14675741
59	0xbbab0872	-0.0052195126
60	0x3e597017	0.21234165
61	0x3dfae650	0.1225096
62	0x3e891f28	0.26781583
63	0xbe76f9c0	-0.2411871

module.lstm.weight_hh_l0 f4 [64, 16]
0	0xbc80af3b	-0.015708556
1	0xbd569b45	-0.05239417
2	0x3d9f5c47	0.077812724
3	0x3dba5dad	0.090998985
4	0x3c8c8d03	0.017157083
5	0xbd5502fa	-0.05200479
6	0xbcff50dc	-0.031166486
7	0x3d802c91	0.062585
8	0xbdd91a35	-0.10600702
9	0x3e125ee1	0.14294006
10	0x3e5a42ab	0.21314494
11	0x3e7d92ec	0.24763077
12	0xbeaa99d6	-0.33320493
13	0x3e9765a7	0.29569742
14	0x3d8c0a1d	0.068378665
15	0xbe8bad6f	-0.27280757
16	0x3e1e7259	0.15473308
17	0xbe7b9e3e	-0.24572083
18	0x3e8d6f2f	0.2762389
19	0xbdfc5e84	-0.12322715
20	0x3e970f40	0.29503822
21	0x3e22d73b	0.15902416
22	0xbd5b041f	-0.053470727
23	0x3ddb03ea	0.10694106
24	0x3e1e9df6	0.15489945
25	0xbd46688b	-0.048439544
26	0xbd746298	-0.05966434
27	0xbdecb354	-0.115576416
28	0xbe5a09bd	-0.21292777
29	0x3c33b98e	0.010969533
30	0x3cedeb81	0.029042961
31	0xbe7e6d7c	-0.24846452
32	0xbdc119be	-0.09428738
33	0x3c2cdc30	0.010550544
34	0xbcd84de2	-0.026404325
35	0x3dcdf629	0.10056717
36	0xbc25e8e3	-0.010126325
37	0xbe34ad23	-0.17644171
38	0xbd9d09ee	-0.076679096
39	0xbea7fd4a	-0.32810432
40	0x3ead0670	0.33793974
41	0xbdd9556a	-0.106119946
42	0x3e9354e5	0.28775707
43	0x3e014859	0.12625255
44	0xbe827eb1	-0.25487283
45	0x3e694e93	0.2278388
46	0xbdae7601	-0.08518601
47	0xbde784f5	-0.113046564
48	0xbd8d3f2a	-0.06896813
49	0xbdd51924	-0.10405186
50	0xbe2c2bd8	-0.168136
51	0xbea8f99b	-0.33002934
52	0xbe12d4aa	-0.14338937
53	0x3e75967a	0.23983184
54	0xbcdec330	-0.027192682
55	0xbe84e887	-0.25958654
56	0x3e7bbfc8	0.24584877
57	0xbe33647a	-0.17518798
58	0x3e733e40	0.23754215
59	0x3e4e30d3	0.20135812
60	0xbdf8fb37	-0.121572904
61	0x3e9ddf48	0.30834413
62	0xbd597439	-0.053089354
63	0xbdce1cd0	-0.10064089
64	0xbe848c1f	-0.25888154
65	0x3e08f9fc	0.13376611
66	0x3e3588d1	0.17727973
67	0xbd3cd512	-0.046101637
68	0x3e8785fc	0.2646941
69	0xbd83bfc1	-0.064330585
70	0x3e2d1e1d	0.16906019
71	0x3c9247ba	0.017856468
72	0xbbb3dcbd	-0.0054889605
73	0x3ce7a68a	0.028277654
74	0x3e1df1ea	0.15424314
75	0xbd4edae7	-0.05050173
76	0x3e36b0c4	0.17840868
77	0x3e3d875b	0.18508665
78	0x3d104922	0.035225995
79	0xbdabc2c5	-0.08386759
80	0x3b9483dc	0.0045323204
81	0xba55735c	-0.0008142495
82	0x3d763e2d	0.06011789
83	0xbd75a4ae	-0.059971504
84	0xbd60b387	-0.05485871
85	0x3c93e6b7	0.01805435
86	0x3d32a02c	0.043609783
87	0x3d659812	0.05605323
88	0x3e25fce2	0.16209748
89	0xbc918c53	-0.017767107
90	0x3e92dd24	0.28684342
91	0x3de36194	0.11102596
92	0xbdee52e6	-0.11636905
93	0x3d3fee33	0.046858024
94	0xbe21af2e	-0.15789482
95	0xbd950270	-0.072758555
96	0xbe0c46bd	-0.1369886
97	0xbdd14c7f	-0.102196686
98	0x3e8b138e	0.27163357
99	0xbe12953d	-0.14314742
100	0x3df9a83b	0.121902905
101	0xbe1691e3	-0.14704089
102	0xbe2b742f	-0.1674354
103	0xbe618a5f	-0.2202544
104	0x3c128565	0.008942937
105	0xbe4686da	-0.1938738
106	0x3dd41b19	0.10356731
107	0xbd7aa61b	-0.061193567
108	0xbe31d9d0	-0.17368245
109	0x3e7a281d	0.24429365
110	0xbda130c1	-0.07870627
111	0x3e7ff34f	0.24995159
112	0xbe267412	-0.16255215
113	0x3df99536	0.12186663
114	0xbc372d17	-0.011180184
115	0x3d10a9b8	0.035318106
116	0xbddcd382	-0.107825294
117	0xbd4cc3c0	-0.04999137
118	0x3d80b71e	0.06284927
119	0x3da3503c	0.07974288
120	0xbe5289be	-0.20560357
121	0xbd67d2f2	-0.056597658
122	0x3d2784cc	0.04089813
123	0xbda68325	-0.081304826
124	0x3e20872e	0.15676567
125	0xbe064b59	-0.1311468
126	0xbe8ccc10	-0.27499437
127	0xbe2bb39e	-0.16767737
128	0xbe821fb5	-0.25414816
129	0xbe7b2c01	-0.24528505
130	0x3cd37712	0.025813613
131	0xbdeaa2e0	-0.11456847
132	0xbe1e6bad	-0.15470763
133	0x3e312a9c	0.1730141
134	0x3e1ff833	0.15622024
135	0x3de112d9	0.10989923
136	0xbd145698	-0.036215395
137	0x3ddaf17b	0.1069059
138	0xbdd19021	-0.102325685
139	0x3e791542	0.24324515
140	0xbe9c94f0	-0.3058238
141	0x3d96d890	0.07365525
142	0x3dba7b96	0.091056034
143	0xbe9fe0ca	-0.31226188
144	0xbdc9dacc	-0.09856185
145	0xbe8f4191	-0.2797971
146	0xbde3bc0b	-0.11119851
147	0x3dbbf45b	0.091774665
148	0xbd9efe65	-0.07763366
149	0x3cf3f743	0.02978099
150	0xbe6edfdc	-0.23327583
151	0x3dde575e	0.10856508
152	0xbe336bfb	-0.1752166
153	0x3d2bb8ee	0.04192441
154	0xbdf2b41a	-0.11850758
155	0x3d471722	0.048606046
156	0xbe8cc107	-0.27491018
157	0x3da6d397	0.08145826
158	0xbdac8e8d	-0.08425627
159	0xbe2ab7cf	-0.1667168
160	0x3d8febde	0.0702741
161	0xbe064e9e	-0.13115928
162	0x3daa438d	0.083136655
163	0x3da4c190	0.080447316
164	0xbd84fb1a	-0.06493206
165	0xbcdad009	-0.026710527
166	0x3e2cbd08	0.16868985
167	0x3c603c16	0.013686201
168	0xbb9ec445	-0.0048451745
169	0xbcf47f17	-0.029845757
170	0x3e057885	0.13034256
171	0x3db03065	0.086029805
172	0xbe06e085	-0.13171585
173	0x3e5f1cee	0.2178838
174	0xbded33ff	-0.11582183
175	0x3dcabc55	0.09899203
176	0x3da4085d	0.08009408
177	0x3c055a41	0.008139194
178	0x3d692f29	0.05692974
179	0x3b8da295	0.00432236
180	0x3e5423e9	0.20716824
181	0xbc2ae571	-0.01043068
182	0xbd2302d8	-0.039797634
183	0xbde5ac4e	-0.11214505
184	0xbd6c8721	-0.057746056
185	0x3dfb6552	0.12275185
186	0x3db0257d	0.086009
187	0x3cd9476c	0.026523314
188	0x3d0b56cc	0.034018323
189	0xbe26bb71	-0.1628244
190	0xbe5d426b	-0.21607368
191	0x3d7e8fe6	0.06214895
192	0x3e2635b3	0.16231422
193	0xbdc4908b	-0.09597882
194	0x3e80732b	0.25087866
195	0x3e5533c4	0.20820528
196	0x3e817d61	0.2529097
197	0x3d215c67	0.039394762
198	0xbe51e791	-0.20498492
199	0xbdf35210	-0.118808866
200	0x3e98870d	0.29790536
201	0xbe218541	-0.15773489
202	0xbddf88ac	-0.1091474
203	0x3de0a0c1	0.109681614
204	0xbd6cbe84	-0.057798877
205	0xbc907033	-0.017631626
206	0xbd4df206	-0.05027964
207	0x3d7518f4	0.05983825
208	0x3e357f81	0.1772442
209	0xbd98b035	-0.07455484
210	0xbc5685c6	-0.0130934175
211	0xbd5dfadd	-0.05419432
212	0xbd98b9bc	-0.07457301
213	0xbd0eebc6	-0.03489282
214	0xbd123df5	-0.035703618
215	0xbdb1fe98	-0.08691138
216	0x3e41b528	0.18916762
217	0xbe4c398d	-0.19943829
218	0x3e013f85	0.12621887
219	0xbde92d70	-0.1138562
220	0xbe2ae7a2	-0.16689923
221	0x3e6e99e2	0.23300889
222	0xbd239764	-0.0399393
223	0x3d514489	0.05109075
224	0x3d9ea168	0.077456295
225	0x3e0b9e8f	0.13634704
226	0x3e9afdec	0.30271852
227	0xbac41d5f	-0.0014962367
228	0x38c47367	9.367504e-05
229	0x3e0696d4	0.13143474
230	0x3dcec723	0.10096576
231	0xbe938cb0	-0.28818274
232	0x3e9bfec3	0.30467805
233	0xbd03357c	-0.03203343
234	0x3ea6d989	0.3258784
235	0xbe10b822	-0.14132741
236	0xbe152006	-0.14562997
237	0x3cbb4622	0.02286059
238	0xbddd5e56	-0.10809009
239	0xbdba9de5	-0.09112147
240	0xbe6aaff6	-0.22918686
241	0x3e1fe933	0.15616302
242	0x3e2cff5a	0.16894284
243	0xbea67826	-0.3251354
244	0x3e3c6a90	0.18400025
245	0xbdf30f65	-0.11868171
246	0xbe88f7f6	-0.2675168
247	0xbe279d42	-0.16368583
248	0xbdf99fd1	-0.12188686
249	0x3e0b83c8	0.1362449
250	0xbe8a3ac4	-0.2699796
251	0x3e7c9cb8	0.24669158
252	0xbe26d7e8	-0.16293299
253	0x3e840357	0.25783798
254	0xbe336e88	-0.17522633
255	0x3df4478e	0.119277105

module.lstm.bias_ih_l0 f4 [64]
0	0x3e561aa3	0.20908599
1	0x3dd159b2	0.10222186
2	0xbe09d15e	-0.13458773
3	0xbde12398	-0.10993117
4	0x3dd6dd82	0.10491468
5	0xbe1b29eb	-0.15152709
6	0xbe2b3050	-0.16717649
7	0x3d0171f9	0.031602833
8	0xbdcb3efb	-0.09924122
9	0x3e89db1f	0.2692499
10	0x3e10f81f	0.1415715
11	0x3d9d9a4b	0.07695445
12	0x3e76da99	0.24106826
13	0x3e58dbb5	0.21177562
14	0xbe4490e0	-0.1919589
15	0x3de6eace	0.11275254
16	0x3e1b7ed3	0.15185098
17	0xbc6492f8	-0.013951056
18	0xbdf3b13e	-0.11899041
19	0xbdb038e7	-0.08604603
20	0x3d91c1b5	0.07117025
21	0x3e810b8e	0.25204128
22	0x3e6c0797	0.2304977
23	0x3dd1db0d	0.10246859
24	0x3e522b8e	0.20524427
25	0x3cd23eb6	0.025664669
26	0x3e04a2b1	0.12952687
27	0x3dba7f57	0.091063194
28	0x3cb96f81	0.022636177
29	0xbe2f3d3e	-0.17113206
30	0x3e2a5276	0.16633019
31	0xbd8557eb	-0.0651091
32	0xbc8ddfca	-0.017318625
33	0xbe029895	-0.12753518
34	0x3d0bdeec	0.03414814
35	0xbd317ccb	-0.043331902
36	0x3d737b2b	0.059443634
37	0xbd156aa5	-0.036478657
38	0xbdd5e040	-0.10443163
39	0xbe39ddda	-0.18151036
40	0x3de20706	0.11036496
41	0xbe239cc6	-0.15977773
42	0x3d2bce7c	0.041944966
43	0xbdbb42af	-0.09143578
44	0xbdefd6c1	-0.11710883
45	0x3c6b384e	0.014356686
46	0xbb4640aa	-0.0030250945
47	0xbc511349	-0.012760946
48	0xbd8d29b8	-0.06892723
49	0x3c6abb83	0.014326933
50	0xbdfbf297	-0.1230213
51	0x3ddd895a	0.10817213
52	0xbc39520f	-0.011311068
53	0x3d43d023	0.047805917
54	0x3e884d2f	0.26621386
55	0xbd2d5e11	-0.042326037
56	0x3e55ae34	0.20867234
57	0x3c544480	0.012955785
58	0xbaa9289e	-0.0012905782
59	0x3db2f2b5	0.08737699
60	0xbd788910	-0.060677588
61	0x3e2da65f	0.16957997
62	0x3e8a345a	0.26993066
63	0xbe188428	-0.14894164

module.lstm.bias_hh_l0 f4 [64]
0	0x3ea2b008	0.31774926
1	0xbd79adaa	-0.060956635
2	0xbcb1b702	-0.02169371
3	0xbd13e467	-0.036106493
4	0x3e15138d	0.1455824
5	0x3b07a8cd	0.0020699978
6	0xbc5601cd	-0.013061953
7	0x3b8221da	0.0039713206
8	0x3bc84d58	0.0061127357
9	0xbd9757db	-0.07389804
10	0xbdc29987	-0.09501939
11	0xbe40fb8d	-0.18845959
12	0x3dc06ac4	0.09395364
13	0x3e8a17d0	0.26971292
14	0x3c953aa3	0.018216437
15	0x3d810805	0.06300358
16	0x3e80420c	0.2505039
17	0xbe25759b	-0.16158144
18	0x3d7606d8	0.06006512
19	0x3e80124d	0.25013962
20	0x3e396ec8	0.18108666
21	0x3d3e994d	0.046532918
22	0xbcbe9577	-0.02326463
23	0xbe248a35	-0.16068347
24	0x3e630d68	0.22173083
25	0xbd135af8	-0.035975426
26	0xbd8cffe7	-0.06884747
27	0xbe398819	-0.18118323
28	0x3e0f0a45	0.13968761
29	0xbd0bd5f4	-0.03413959
30	0x3e11dba3	0.14243941
31	0xbd1aad98	-0.03776321
32	0xbe9c2f0c	-0.30504644
33	0xbe25a910	-0.16177773
34	0xbd6e3d5a	-0.05816398
35	0x3d07a915	0.033120234
36	0x3e2c3193	0.16815786
37	0x3e107e64	0.14110714
38	0xbe1fa5be	-0.1559057
39	0xbccde812	-0.025135074
40	0xbde25946	-0.11052184
41	0xbcad1ab1	-0.021130892
42	0xbc26beb8	-0.010177307
43	0x3e7b69cb	0.24552076
44	0xbe16306e	-0.14666912
45	0x3e1ee755	0.15517934
46	0xbd61c718	-0.05512151
47	0xbe1aa230	-0.15100932
48	0x3e8eb272	0.27870518
49	0xbe152689	-0.14565481
50	0xbe035249	-0.12824358
51	0xbe04e5fe	-0.1297836
52	0xbe0f5bc7	-0.13999854
53	0xbc96b4b9	-0.018396722
54	0xbdebc349	-0.11511857
55	0x3e51658e	0.20448896
56	0xbe1bb15a	-0.15204373
57	0x3d9b1a13	0.07573333
58	0x3e0bd3b5	0.13654979
59	0x3bd01e58	0.0063512735
60	0x3e2ab0ce	0.16669008
61	0x3d9cd71c	0.07658216
62	0x3cc34970	0.023838729
63	0x3dddb405	0.108253516

module.lstm.weight_ih_l1 f4 [64, 16]
0	0x3d2c15b0	0.04201287
1	0x3d93c006	0.0721436
2	0x3e16f0d6	0.14740309
3	0x3e9c5f79	0.3054159
4	0xbd36b326	-0.044604443
5	0xbe627d20	-0.22118044
6	0x3d8532ca	0.06503828
7	0x3e174920	0.14773989
8	0x3e0fc796	0.1404098
9	0xb9b7c2cc	-0.00035049615
10	0x3e87feaf	0.26561496
11	0x3dd18475	0.10230342
12	0xbd72eec6	-0.059309743
13	0x3e8a1e06	0.2697603
14	0x3e26b48e	0.16279814
15	0x3e938228	0.2881024
16	0xbda3c8c7	-0.079972796
17	0xbe013baf	-0.12620424
18	0xbdfaeb18	-0.12251872
19	0x3e0b10ce	0.13580629
20	0xbd694b3e	-0.056956522
21	0xbe5e7adc	-0.21726555
22	0xbe9e2a10	-0.30891466
23	0xbdb0f89e	-0.0864117
24	0x3e5c674d	0.21523781
25	0xbd501042	-0.050796755
26	0xbe18d371	-0.14924408
27	0xbc1de65b	-0.009637441
28	0xbe5aabc8	-0.21354592
29	0x3e9da244	0.3078786
30	0xbca23616	-0.01980118
31	0x3e476736	0.19472966
32	0xbd97aeb1	-0.074063666
33	0xbe3b88d0	-0.18313909
34	0x3e1a62de	0.15076777
35	0x3e84c208	0.25929284
36	0xbd7b9f78	-0.061431378
37	0xbe8f6842	-0.2800923
38	0x3e22d3d0	0.15901113
39	0xbc84c921	-0.016209187
40	0x3e897da3	0.26853666
41	0x3de0fb13	0.109853886
42	0xbc549d9f	-0.012977033
43	0xbe0fc4c8	-0.1403991
44	0xbe66a2c7	-0.22523032
45	0x3e93f66a	0.28898937
46	0x3d5aed55	0.053448994
47	0xbe45a19f	-0.19299935
48	0x3e159506	0.14607629
49	0x3e4871ed	0.19574709
50	0x3e6c5b43	0.23081689
51	0x3da3dbc7	0.080009036
52	0xbd2976ad	-0.041372944
53	0xbdfbebf7	-0.12300866
54	0xbd0ded0c	-0.034649894
55	0x3dfe8ff4	0.12429801
56	0x3e927c0a	0.2861026
57	0x3d9af1b0	0.075656295
58	0xbe1b531d	-0.15168424
59	0x3e71dfec	0.23620576
60	0x3e5758e2	0.2103
61	0x3c9a0379	0.018800484
62	0x3e190451	0.14943053
63	0x3d3bbeba	0.045836188
64	0x3e0d2510	0.1378367
65	0x3a86a52e	0.0010272616
66	0x3e2dceab	0.16973369
67	0xbd6b0f1d	-0.05738746
68	0xbdf5fb7d	-0.12010858
69	0xbe6b9e37	-0.23009573
70	0xbe13f1c9	-0.14447702
71	0x3d9b2ed6	0.075772926
72	0xbd80827f	-0.0627489
73	0x3e75fb72	0.240217
74	0xbdb0d2b7	-0.08633941
75	0xbb5971d0	-0.003317941
76	0x3cd3c8f0	0.02585265
77	0xbd5fe07d	-0.054657448
78	0x3c5489c8	0.012972303
79	0xbd461b45	-0.04836585
80	0xbdcf268a	-0.101147726
81	0xbd60ea7d	-0.054911125
82	0x3e185446	0.14875898
83	0x3e0db327	0.13837872
84	0x3d8bdc1f	0.06829094
85	0xbe8cbeff	-0.27489468
86	0xbe1e8525	-0.15480478
87	0x3d8b5be9	0.0680464
88	0x3e84e44c	0.25955427
89	0xbd8580c1	-0.065186985
90	0xbdbaad23	-0.091150545
91	0xbd730cdf	-0.059338447
92	0xbe3617c0	-0.17782497
93	0xbe0ecbbe	-0.13944909
94	0xbdec7182	-0.115450874
95	0x3e75b569	0.23994984
96	0xbe2cefef	-0.16888402
97	0xbe5e68d4	-0.21719676
98	0xbe278ee5	-0.16363104
99	0xbdac228a	-0.08405025
100	0x3dab5cd4	0.08367315
101	0x3e7d7b49	0.24754061
102	0x3e1d4f68	0.15362322
103	0x3d0e475e	0.03473603
104	0xbe1750c4	-0.14776903
105	0x3d04669d	0.032324422
106	0xbe4f6874	-0.2025469
107	0xbd0e0361	-0.03467119
108	0xbd33611c	-0.043793783
109	0x3d94b15e	0.072603926
110	0x3e0d0325	0.13770731
111	0xbd832734	-0.06403962
112	0x3e0f7b93	0.14011984
113	0x3d8badb2	0.06820239
114	0x3e5170ec	0.20453233
115	0xbe8795ac	-0.26481378
116	0xbe42f3b9	-0.19038285
117	0x3e175e68	0.14782107
118	0xbe5cfd0e	-0.21580908
119	0xbe73c7c8	-0.23806679
120	0x3e23061e	0.15920302
121	0x3e62424b	0.22095601
122	0xbdf69b8e	-0.120413885
123	0xbdcaae91	-0.09896577
124	0xbd9d3363	-0.07675817
125	0x3d9f1abe	0.077687725
126	0x3e3f9bb6	0.18711743
127	0x3e28dd6d	0.16490717
128	0x3cdd5bd4	0.027021326
129	0x3e5afe4b	0.21386068
130	0x3dd1d7a0	0.10246205
131	0xbd6aa967	-0.05729046
132	0xbe176fe9	-0.14788784
133	0xbc542305	-0.012947802
134	0xbe5aac33	-0.21354751
135	0xbe0a1532	-0.13484648
136	0x3e1313bb	0.14362995
137	0xbe653e4b	-0.22387044
138	0xbe3311c3	-0.17487244
139	0x3df6f926	0.1205924
140	0x3e536b62	0.20646432
141	0xbd4891ab	-0.048967045
142	0xbe5d6fbd	-0.21624656
143	0xbdb33285	-0.0874987
144	0xbce300d8	-0.027710363
145	0xbe816d7c	-0.25278842
146	0x3de6627a	0.11249252
147	0x3e8890cb	0.26672968
148	0x3e8a4557	0.27006027
149	0x3dfb4258	0.122685134
150	0x3dd35828	0.10319549
151	0xbc93087a	-0.017948378
152	0xbe34b3a4	-0.17646652
153	0x3e299bd0	0.16563344
154	0xbd0cd387	-0.034381416
155	0xbe253a33	-0.16135482
156	0xbe7ea4d6	-0.24867567
157	0xbe267696	-0.16256174
158	0x3dca2bf0	0.09871662
159	0x3e3ae94b	0.18253057
160	0xbdb33636	-0.08750574
161	0xbe0de9d5	-0.13858731
162	0xbdde6f7f	-0.1086111
163	0xbd29914e	-0.04139834
164	0x3e4fd9a3	0.20297866
165	0xbe522df7	-0.20525347
166	0x3df66a46	0.12031989
167	0xbe09f2bb	-0.134715
168	0xbdba0f94	-0.090850025
169	0xbd9ff1fd	-0.078098275
170	0x3c59119b	0.013248826
171	0xbe21cd08	-0.1580087
172	0xbe890201	-0.2675934
173	0xbe20ce1c	-0.15703624
174	0xbe1a0fd9	-0.15045108
175	0x3dc7ad7a	0.09749885
176	0x3e3973e4	0.18110615
177	0x3e2d0194	0.16895133
178	0x3e0602a0	0.13086939
179	0xbe89802f	-0.2685561
180	0xbdc886ba	-0.09791322
181	0x3d476571	0.048680726
182	0x3d3b91cb	0.045793336
183	0x3bc69d37	0.006061222
184	0xbacd98a8	-0.0015685754
185	0xbdcd316d	-0.10019193
186	0xbd3cd1bc	-0.046098456
187	0x3e704306	0.23463067
188	0xbe56362d	-0.20919104
189	0xbe16c974	-0.14725286
190	0xbd08fee8	-0.033446223
191	0x3d33ed65	0.04392757
192	0x3e1e52af	0.15461229
193	0xbea22668	-0.31669927
194	0x3e5e2e7c	0.2169742
195	0x3e0e33a9	0.13886894
196	0x3d72a0b1	0.05923528
197	0x3e4961e1	0.19666244
198	0xbe628b46	-0.22123441
199	0x3ccb9d59	0.024855303
200	0x3e201313	0.15632276
201	0xbe79da00	-0.24399567
202	0x3d46d262	0.04854048
203	0xbd98e81f	-0.074661486
204	0x3e14a09c	0.14514393
205	0xbe091a9a	-0.13389054
206	0xbd4d3a84	-0.050104633
207	0xb9c71317	-0.0003797046
208	0xbe65d84b	-0.2244579
209	0x3adbfd80	0.0016783923
210	0xbe1886f5	-0.14895232
211	0x3c899fad	0.016799772
212	0x3e7c43d1	0.24635245
213	0xbe27d394	-0.16389304
214	0xbd7bcfc3	-0.061477434
215	0x3e441c88	0.19151509
216	0xbdd74ecc	-0.10513076
217	0x3e1e0313	0.1543086
218	0xbe7582bf	-0.23975657
219	0x3e64a1e8	0.22327387
220	0x3dc82385	0.097724
221	0x3d701fb8	0.058624
222	0x3d41f18c	0.047349498
223	0x3dd47c75	0.10375301
224	0x3e8cbb4d	0.2748665
225	0xbe2eb8ea	-0.17062727
226	0x3e9c5d05	0.30539718
227	0xbd6fc0e8	-0.05853358
228	0xbe41d695	-0.18929513
229	0xbe462cb2	-0.19352987
230	0x3da48db7	0.080348425
231	0xbd30b592	-0.04314191
232	0xbd95bf6f	-0.07311904
233	0xbdc4cb32	-0.09609069
234	0xbe252b84	-0.16129881
235	0xbe1ad3e3	-0.15119891
236	0xbd7eaf52	-0.062178917
237	0x3e28f31a	0.16498986
238	0x3d23d39f	0.03999674
239	0x3e109c3a	0.14122096
240	0xbd288b9c	-0.041148767
241	0x3e51e3b6	0.20497021
242	0x3e140abf	0.14457224
243	0xbe4d51fb	-0.20050804
244	0x3d81bab0	0.06334436
245	0xbe0ec0af	-0.1394069
246	0xbab55e90	-0.0013837386
247	0x3e64d9ee	0.22348759
248	0xbe0e0b9d	-0.13871618
249	0xbe571a4f	-0.2100613
250	0x3e83ed5c	0.25767028
251	0x3de12e5a	0.10995169
252	0x3d64ea59	0.055887554
253	0x3e33f75e	0.17574832
254	0xbd70ee6c	-0.058821127
255	0xbe582cce	-0.21110842

module.lstm.weight_hh_l1 f4 [64, 16]
0	0xbe9f987b	-0.3117102
1	0xbd1e2371	-0.03860802
2	0xbdaba431	-0.083809264
3	0xbdc87e9d	-0.097897746
4	0xbddfc0ea	-0.10925467
5	0xbe394e19	-0.18096198
6	0xbe79ad19	-0.24382438
7	0x3c5fe82d	0.013666195
8	0xbe7bf397	-0.24604641
9	0x3e762bcb	0.24040143
10	0x3e8cff70	0.27538633
11	0xbdc83fc6	-0.09777789
12	0xbe337091	-0.1752341
13	0xbdecbe6b	-0.11559757
14	0xbe488323	-0.19581275
15	0xbd39c56d	-0.045354296
16	0x3d8d95b9	0.06913323
17	0x3e4df918	0.20114553
18	0xbe7aaec6	-0.24480733
19	0xbcebee33	-0.028800106
20	0x3dd9f347	0.106421046
21	0xbd66bd0a	-0.056332625
22	0x3e0234d8	0.12715471
23	0xbe01ccd8	-0.12675798
24	0xbea989d4	-0.33112967
25	0x3da58f7d	0.08084009
26	0x3e32ebe6	0.174728
27	0xbeba930b	-0.3644031
28	0xbda1e24b	-0.0790449
29	0x3e6f91a8	0.23395407
30	0x3e088ca9	0.13334908
31	0xbea80cba	-0.3282221
32	0x3e092eee	0.13396809
33	0x3e4527a8	0.19253409
34	0x3dea32fa	0.11435504
35	0xbe5d7e19	-0.21630134
36	0xbe85863b	-0.26078972
37	0xbd1b20d7	-0.037873115
38	0x3dc88bba	0.09792276
39	0xbe912197	-0.2834594
40	0x3ded5e14	0.115902096
41	0x3d68e40e	0.056858115
42	0x3c13717a	0.008999223
43	0x3e463064	0.19354397
44	0xbd38d0bd	-0.045120943
45	0xbdbd2d0a	-0.09237106
46	0xbd2d2370	-0.042270124
47	0x3e0f31a5	0.13983782
48	0xbe153ed4	-0.14574748
49	0xbd4e05ba	-0.05029843
50	0xbe714e47	-0.23565017
51	0x39c17034	0.00036895426
52	0x3dcbb6da	0.099469855
53	0x3cda76bf	0.02666795
54	0x3e2f26bc	0.1710462
55	0x3d930fa4	0.071807176
56	0x3e05c445	0.13063152
57	0xbe43ebee	-0.19132969
58	0xbd8500f3	-0.06494322
59	0x3d3f14ef	0.046650823
60	0xbc541d1a	-0.0129463915
61	0xbe3e35b8	-0.1857518
62	0xbbb47114	-0.005506644
63	0x3e435745	0.1907626
64	0x3e356314	0.17713577
65	0xbdd458da	-0.103685096
66	0xbdb6c222	-0.08923747
67	0xbdd34301	-0.10315514
68	0x3e3bbe6c	0.18334359
69	0x3e7c71c6	0.24652776
70	0x3de6a304	0.112615615
71	0x3e3d8445	0.18507488
72	0xbe7dad71	-0.24773194
73	0xbd0daa95	-0.034586508
74	0xbd128672	-0.03577275
75	0xbe046c97	-0.12932049
76	0x3e9d9231	0.30775598
77	0xbcdfabae	-0.027303543
78	0xbcda8d83	-0.026678806
79	0xbe71c140	-0.23608875
80	0xbea1b3c7	-0.31582472
81	0x3e75bc23	0.2399755
82	0x3e472f61	0.19451667
83	0xbe9e0061	-0.30859664
84	0x3daed4f5	0.08536712
85	0xbc336ddb	-0.010951485
86	0x3dceaefe	0.10091971
87	0xbe604920	-0.21902895
88	0x3e1134e4	0.14180332
89	0x3e2ef229	0.17084564
90	0x3d97f588	0.07419878
91	0x3df33a71	0.11876381
92	0x3db2e957	0.08735912
93	0x3e43bb8a	0.19114509
94	0xbe30f903	-0.1728249
95	0x3e2d1973	0.1690424
96	0x3e6fc5eb	0.23415343
97	0x3e574532	0.2102249
98	0x3e5260b8	0.20544708
99	0xbe138fb4	-0.14410287
100	0x3e08409d	0.13305898
101	0xbc1d69c0	-0.009607732
102	0xbdc03a8d	-0.09386168
103	0x3e68f9b7	0.22751509
104	0x3beab5a4	0.0071627665
105	0xbd788683	-0.060675155
106	0xbbd683a7	-0.006546456
107	0x3e587531	0.21138455
108	0xbdf047d4	-0.1173245
109	0x3e8185f7	0.2529752
110	0x3d91334c	0.07089862
111	0x3d9c66eb	0.076368175
112	0x3e6a1f13	0.22863416
113	0x3e3dca7e	0.18534276
114	0xbe12e61f	-0.14345597
115	0x3e868a5d	0.26277438
116	0x3e8fb29d	0.2806596
117	0x3dee5775	0.11637775
118	0x3db75158	0.08951062
119	0x3e5fd0dd	0.21857019
120	0x3e7bc5aa	0.24587122
121	0xbd25da9b	-0.04049168
122	0x3e3ecc7d	0.18632694
123	0xbdbec451	-0.09314788
124	0xbe411b0b	-0.18857972
125	0x3d264c50	0.04060012
126	0xbe071ed8	-0.1319536
127	0x3d0964c1	0.033543352
128	0xbd04807f	-0.032349106
129	0x3e320a3f	0.17386721
130	0xbd2c18af	-0.042015728
131	0xbe7ab80c	-0.24484271
132	0xbe383487	-0.17988788
133	0xbd7f9d2f	-0.06240576
134	0xbdced338	-0.100988805
135	0xbe2e8ddc	-0.17046303
136	0xbe7f6033	-0.24939041
137	0x3c81d041	0.015846374
138	0x3e10bfa7	0.1413561
139	0x3cb0afd7	0.021568222
140	0xbe1651d0	-0.14679646
141	0xbdcd0168	-0.10010034
142	0x3e74bf56	0.23901114
143	0xbdd3f0b0	-0.10348642
144	0xbe46a8c9	-0.19400324
145	0x3e7e89d4	0.24857265
146	0x3cd6e82e	0.026233759
147	0xbc9bd87b	-0.019024124
148	0xbe3cd4a6	-0.18440494
149	0x3e7843a3	0.24244551
150	0xbe81a1c1	-0.2531872
151	0x3da51f94	0.08062664
152	0xbe5307e8	-0.20608485
153	0x3e512674	0.20424825
154	0x3d486756	0.048926674
155	0x3e482427	0.19545041
156	0xbde4b5d0	-0.111674905
157	0x3d1ef463	0.038807284
158	0xbd486756	-0.048926674
159	0x3e43ae5c	0.19109482
160	0xbe4798d8	-0.19491899
161	0x3ea766e1	0.32695678
162	0xbd0d452c	-0.034489796
163	0xbe85f785	-0.26165405
164	0xbe26dfb0	-0.16296268
165	0xbe0e373b	-0.13888256
166	0xbe06c2e2	-0.1316028
167	0xbdab5f22	-0.083677545
168	0x3decdce7	0.11565571
169	0xbc712e04	-0.014720444
170	0xbd769fbb	-0.060210925
171	0xbe0f202b	-0.13977115
172	0x3ea5cdfb	0.32383713
173	0xbe414e7c	-0.18877596
174	0xbde003a7	-0.10938197
175	0xbdecacf6	-0.11556427
176	0xbd7326e5	-0.059363265
177	0xbe808c05	-0.25106826
178	0x3e715197	0.2356628
179	0xbcad67b6	-0.021167617
180	0xbdc4c0bc	-0.09607074
181	0x3e16653f	0.1468706
182	0x3e218044	0.15771586
183	0x3d2162be	0.03940081
184	0xbe273f69	-0.16332783
185	0x3ddec9e1	0.10878349
186	0xbdf5386d	-0.11973653
187	0xbddfd36e	-0.10928999
188	0xbdbd2d09	-0.092371054
189	0x3e59f8c9	0.2128631
190	0x3dfcd67b	0.123455964
191	0xbce58daf	-0.028021662
192	0x3e347236	0.17621693
193	0x3dc3407c	0.09533784
194	0xbda9ad5e	-0.0828502
195	0xbdf9b121	-0.12191988
196	0x3d98b53c	0.07456443
197	0xbe17e166	-0.14832076
198	0x3d8e9284	0.069615394
199	0x3e0c2960	0.13687658
200	0xbe40590b	-0.18783967
201	0x3e550cc2	0.20805648
202	0x3e2abd9d	0.16673894
203	0xbe683308	-0.22675717
204	0x3e945133	0.289682
205	0xbd8677a8	-0.06565791
206	0xbd643caa	-0.055721916
207	0xbc13cd78	-0.009021156
208	0x3e513e67	0.20433961
209	0x3b302525	0.0026877609
210	0xbd9f6c13	-0.077842854
211	0x3e0159b9	0.12631883
212	0x3dbfdc1d	0.09368155
213	0xbe12e1e5	-0.14343984
214	0x3e2627e2	0.16226152
215	0xbdda2b96	-0.106528446
216	0xbe1ad90a	-0.15121856
217	0x3e47afdc	0.19500679
218	0x3e251f7c	0.16125292
219	0x3d871c85	0.065972365
220	0x3d89d013	0.0672914
221	0x3e1f9d2c	0.155873
222	0x3cd24703	0.025668627
223	0x3e5352fc	0.20637125
224	0xbe65b513	-0.22432356
225	0xbc4079e3	-0.01174781
226	0xbc67751a	-0.01412704
227	0xbdb67759	-0.089094825
228	0xbd7a3752	-0.061087914
229	0x3ddc7666	0.1076477
230	0x3d877099	0.06613273
231	0xbc7ec1e2	-0.015549155
232	0xbde31b0d	-0.11089144
233	0xbe7635b9	-0.24043931
234	0xbcad4453	-0.021150744
235	0xbd708b89	-0.05872682
236	0x3de164f3	0.11005583
237	0xbe936690	-0.28789186
238	0xbe78aabe	-0.24283883
239	0xbd2c9896	-0.042137705
240	0x3dbe3add	0.09288571
241	0x3db2cb9e	0.08730243
242	0xbd5ec436	-0.05438634
243	0xbe6ec725	-0.23318155
244	0x3e0c7839	0.13717736
245	0xbe154560	-0.14577246
246	0xbe266ce4	-0.16252476
247	0xbdfd6b86	-0.12374024
248	0x3da6796a	0.08128627
249	0x3e1dd724	0.15414101
250	0x3e1ca6e0	0.15298033
251	0xbd92d979	-0.07170386
252	0x3e18dbfa	0.14927664
253	0xbcebe27a	-0.028794516
254	0xbd4abb77	-0.049495187
255	0xbd8ff2a1	-0.070287

module.lstm.bias_ih_l1 f4 [64]
0	0xbe3eb40c	-0.1862337
1	0xbd8d63ff	-0.06903838
2	0xbd8c9f98	-0.068663776
3	0x3d6fdf54	0.05856259
4	0xbe43a3ec	-0.191055
5	0x3e30898e	0.17239973
6	0x3e5cfe59	0.21581401
7	0xbe1e1697	-0.15438305
8	0xbe5f9779	-0.21835126
9	0xbd374ba9	-0.04474989
10	0xbd7df921	-0.062005166
11	0xbe0b08a4	-0.13577515
12	0xbdf41b93	-0.11919322
13	0xbbaffe95	-0.0053709247
14	0x3d2f80d2	0.042847462
15	0x3e00f449	0.12593187
16	0xbe511b32	-0.2042053
17	0x3e92ea9e	0.28694624
18	0x3d4619fc	0.048364624
19	0xbdaa2d4b	-0.0830942
20	0x3d97046c	0.0737389
21	0x3e8454de	0.25846
22	0x3d92e375	0.0717229
23	0xbe44bc6c	-0.19212502
24	0xbcfc9110	-0.03083089
25	0x3e002522	0.12514165
26	0x3e579a35	0.21054919
27	0x3db67dc6	0.08910708
28	0xbd0a73b4	-0.03380175
29	0x3d6a70c8	0.057236463
30	0xbe263418	-0.1623081
31	0x3e068067	0.13134919
32	0xbda613b7	-0.08109229
33	0xbe88f6a3	-0.2675067
34	0x3dd0a253	0.10187211
35	0xbe1e3dda	-0.15453282
36	0xbe849d59	-0.25901297
37	0xbbe6e521	-0.0070463573
38	0x3dbe4ac8	0.09291607
39	0xbd88b9e6	-0.06676082
40	0xbe300894	-0.17190772
41	0xbd5ab6b9	-0.053396914
42	0xbde45a28	-0.111500084
43	0x3e8033a3	0.25039396
44	0xbe6f5a8e	-0.23374388
45	0x3e832fd9	0.25622442
46	0x3e3e51cd	0.18585892
47	0xbe429c67	-0.19004975
48	0x3e3f8ff7	0.18707262
49	0xbdd5fe27	-0.10448866
50	0x3dc58f2c	0.096464485
51	0xbe16200a	-0.1466066
52	0xbe0e88b7	-0.1391934
53	0x3cd6f029	0.026237564
54	0x3e2a0cd5	0.16606458
55	0xbdcb86a7	-0.09937792
56	0x3d2f2e5c	0.04276882
57	0xbd9438e5	-0.07237414
58	0x3d887562	0.06663014
59	0x3c0c10fd	0.008548972
60	0x3da69b58	0.08135098
61	0x3be9d06f	0.007135443
62	0xbe030302	-0.12794116
63	0xbc55d775	-0.013051857

module.lstm.bias_hh_l1 f4 [64]
0	0xbda3fb56	-0.08006923
1	0x3ddb8584	0.107188255
2	0xbe34eb1b	-0.1766781
3	0x3e57e9c7	0.21085273
4	0xbd40992d	-0.04702108
5	0x3e4b8dc0	0.19878292
6	0xbe2b7d15	-0.16746934
7	0x3e8145ab	0.25248465
8	0x3e5eab0d	0.21744938
9	0xbe6e7315	-0.23286088
10	0x3cb82c4a	0.022482056
11	0x3d943081	0.07235814
12	0xbe03135a	-0.12800351
13	0xbdac84ea	-0.08423789
14	0x3d50ca08	0.050973922
15	0x3dd50a04	0.10402301
16	0xbe0db11e	-0.13837096
17	0x3e085079	0.13311948
18	0x3ea8099d	0.32819834
19	0x3dfd8a3a	0.1237988
20	0x3e67e149	0.22644533
21	0x3debf796	0.11521833
22	0x3e3fd0e4	0.18732029
23	0xbbe83cf2	-0.0070873434
24	0x3e1ddcfa	0.15416327
25	0xbe4d4184	-0.20044523
26	0x3e15ef62	0.14642099
27	0x3e841a02	0.25801092
28	0x3e245b83	0.16050534
29	0x3e56a64a	0.20961872
30	0xbd6752ef	-0.056475576
31	0xbdfc3263	-0.12314298
32	0x3d369d3b	0.04458354
33	0x3e40261e	0.1876454
34	0xbd949379	-0.07254691
35	0xbc7547e0	-0.01497075
36	0x3e01d904	0.12680441
37	0xbd59e6ba	-0.053198554
38	0xbd3a036c	-0.04541342
39	0xbdf31d77	-0.11870854
40	0xbe233aa4	-0.15940338
41	0x3d036195	0.032075483
42	0x3de7ae4f	0.113125436
43	0x3dd0c9ff	0.10194778
44	0x3e60233e	0.21888444
45	0x3da01011	0.078155644
46	0xbdef8bfc	-0.11696622
47	0x3b161dbf	0.0022905914
48	0xbe4c51b5	-0.19953044
49	0xbe006653	-0.12539034
50	0xbb90440e	-0.004402644
51	0x3e783756	0.24239859
52	0x3d14e618	0.036352247
53	0xbdbf61ea	-0.093448475
54	0xbe673761	-0.22579719
55	0x3e19adb4	0.15007669
56	0x3dd77e8b	0.10522183
57	0xbc4b4e9e	-0.0124088805
58	0xbd8c7d45	-0.06859831
59	0xbe3aced7	-0.18242966
60	0xbd65a5e4	-0.05606641
61	0xbe33c006	-0.1755372
62	0xbd9cb987	-0.07652574
63	0x3db06069	0.08612139

module.linear_1.weight f4 [128, 16]
0	0xbe0e66e5	-0.13906439
1	0x3d872c41	0.06600238
2	0xbdb8d6b0	-0.090253234
3	0xbe2ddb98	-0.169783
4	0x3e177297	0.14789806
5	0xbe65caec	-0.2244069
6	0xbe035dbe	-0.12828729
7	0xbe3974cf	-0.18110965
8	0x3d3c3c25	0.045955796
9	0xbe37a95e	-0.17935702
10	0x3db0c5ce	0.08631478
11	0x3e2b6471	0.16737534
12	0xbd001aaf	-0.031275447
13	0x3e0058ed	0.12533922
14	0x3df8f7f4	0.12156668
15	0x3e347847	0.17624007
16	0xbe517ea8	-0.20458472
17	0xbdcb0cd5	-0.09914557
18	0x3e215de2	0.1575847
19	0xbe006370	-0.12537932
20	0x3e5bb394	0.21455222
21	0x3daa8edc	0.083280295
22	0x3e845ad8	0.25850558
23	0xbbadb7b4	-0.00530144
24	0xbb2727b2	-0.0025505838
25	0x3aad7cf9	0.0013236097
26	0x3e4cda7f	0.20005225
27	0x3d8f4488	0.06995493
28	0xbe29e713	-0.16592054
29	0x3cec3763	0.028835004
30	0x3db078b4	0.08616772
31	0xbd5c2d77	-0.053754296
32	0xbe856bae	-0.26058716
33	0xbe88c1fc	-0.26710498
34	0xbe398a0a	-0.18119064
35	0xbdd8ccfc	-0.10585973
36	0x3e3ee834	0.18643266
37	0x3de2eead	0.1108068
38	0xbe23fb4b	-0.1601383
39	0x3d87f96e	0.06639372
40	0x3e57cdf3	0.21074657
41	0xbe62fb56	-0.2216619
42	0xbe7fc3da	-0.24977055
43	0xbd737235	-0.05943509
44	0x3dcd44ba	0.10022874
45	0xbe649afb	-0.22324745
46	0x3e2e4f3d	0.17022415
47	0x3e51d3c1	0.20490934
48	0x3e381e6d	0.17980357
49	0x3d0bddfd	0.03414725
50	0x3d4fc83f	0.05072808
51	0xbc11127e	-0.008854507
52	0xbe97cc87	-0.2964823
53	0x3e0ae148	0.135625
54	0xbdf741f9	-0.1207313
55	0x3d2ba49f	0.04190504
56	0xbe16b4d0	-0.14717412
57	0x3e2ca943	0.16861443
58	0x3e87c0fb	0.2651442
59	0x3ea74f67	0.32677767
60	0x3e7895a1	0.24275829
61	0xbdf8df04	-0.12151912
62	0x3e00522c	0.12531346
63	0x3c3c1ddc	0.011481728
64	0x3df20736	0.118177816
65	0x3dd520f3	0.10406675
66	0xbe924c57	-0.28573868
67	0xbe2797c7	-0.16366492
68	0x3d18f76c	0.037345335
69	0x3d408503	0.04700185
70	0xbdc51030	-0.09622228
71	0x3dd6b186	0.10483079
72	0x3db0ba60	0.08629298
73	0xbdc0a35d	-0.09406159
74	0x3dd4d33a	0.10391851
75	0x3d7cedf3	0.061750364
76	0x3da82849	0.08210809
77	0x3d8c682e	0.06855808
78	0x3e1ae85b	0.15127699
79	0xbe2da7ee	-0.16958591
80	0x3e6dc3f2	0.23219278
81	0xbe16bc50	-0.14720273
82	0xbe14d4a9	-0.14534248
83	0x3e205b6d	0.15659876
84	0xbe795edb	-0.2435259
85	0xbe02aaed	-0.12760516
86	0x3e194e13	0.14971189
87	0xbd01d7d1	-0.03169996
88	0xbde82de6	-0.113368794
89	0x3df2ec46	0.11861472
90	0xbd4aab42	-0.04947973
91	0xbd0314a5	-0.03200211
92	0x3e78a52d	0.2428176
93	0xbdac9dec	-0.08428559
94	0x3ce158c1	0.027508141
95	0x3e43ebda	0.19132939
96	0x3dfd0f00	0.12356377
97	0xbe0e9e55	-0.13927586
98	0x3e3d118b	0.18463723
99	0xbde09faf	-0.10967957
100	0x3e300faf	0.17193483
101	0x3e679afc	0.22617716
102	0x3e655314	0.22394973
103	0x3d0acb10	0.03388506
104	0x3e2d3059	0.16912974
105	0x3dd1ddf5	0.10247413
106	0xbe7455ff	-0.2386093
107	0x3e0c0efa	0.13677588
108	0x3ddc6557	0.107615165
109	0xbe37a61c	-0.1793446
110	0xbd83e39b	-0.06439897
111	0x3e103c0d	0.14085408
112	0xbde3303e	-0.11093186
113	0x3e1c55a2	0.15267041
114	0xbe3e3a2b	-0.18576877
115	0xbe53da58	-0.2068876
116	0x3caddcf8	0.02122353
117	0x3aad2f38	0.0013212925
118	0xbdec05a4	-0.11524513
119	0x3e5a9676	0.21346459
120	0x3d4b4e4c	0.049635217
121	0xbe14b1fe	-0.14521024
122	0xbd9a0ec3	-0.07522347
123	0xbd34229f	-0.04397833
124	0xbd8879d2	-0.066638604
125	0xbce68a6a	-0.028142173
126	0xbc0e5e7c	-0.008689519
127	0xbe2609ee	-0.16214725
128	0x3de1c501	0.11023904
129	0x3da2fc6b	0.07958301
130	0xbce0c3ba	-0.02743708
131	0xbdb92b91	-0.09041513
132	0xbdd8d340	-0.10587168
133	0x3e01c864	0.12674099
134	0xbdda6074	-0.10662928
135	0x3e76f9c2	0.24118713
136	0x3e006ecb	0.12542264
137	0x3e058777	0.13039957
138	0xbdbe7ed9	-0.09301538
139	0xbd2d6d13	-0.04234035
140	0x3e85109c	0.25989234
141	0x3e18f421	0.14936878
142	0x3d4ad6a0	0.04952109
143	0xbe1ebf94	-0.15502769
144	0xbe7bf791	-0.24606158
145	0xbda1d9f1	-0.07902897
146	0x3dc290a9	0.09500248
147	0xbe3ffea0	-0.18749475
148	0x3dede7e8	0.11616498
149	0x3e091668	0.13387454
150	0xbc8df09e	-0.01732665
151	0x3e4407eb	0.19143645
152	0xbd5a3ba3	-0.05327953
153	0x3e27baf3	0.16379909
154	0x3dd24ef2	0.10268964
155	0xbe294d22	-0.1653333
156	0x3debf2f2	0.115209475
157	0x3e027769	0.12740864
158	0xbda7e48d	-0.081978895
159	0xbd3a0de2	-0.045423396
160	0xbe770661	-0.24123527
161	0xbd02ffe3	-0.031982314
162	0xbe3f7c54	-0.18699771
163	0x3e2910e4	0.1651035
164	0x3df848e8	0.12123281
165	0xbe63f8a0	-0.22262812
166	0xbe096603	-0.1341782
167	0x3ca44561	0.020052614
168	0x3e2186d1	0.15774085
169	0x3d58856b	0.052861612
170	0xbd183457	-0.03715929
171	0xbea75576	-0.3268239
172	0xbdb09d8b	-0.08623799
173	0x3dde5d0e	0.108575925
174	0xbe0b43c3	-0.13600068
175	0x3d619502	0.055073746
176	0xbe57b6cf	-0.2106583
177	0xbe18af8a	-0.14910713
178	0x3e262415	0.16224702
179	0x3dc2c90a	0.095110014
180	0xbcf46f8c	-0.029838346
181	0x3e204c2f	0.15654062
182	0x3dc0f228	0.09421188
183	0xbd54e0cd	-0.0519722
184	0xbe11ff02	-0.14257434
185	0x3e188eeb	0.14898269
186	0xbda7889d	-0.08180354
187	0x3e606036	0.21911702
188	0xbe0cc373	-0.13746433
189	0x3e480ff1	0.19537331
190	0x3de47e44	0.11156896
191	0xbc9ddc7a	-0.01927017
192	0xbc012992	-0.007883446
193	0x3d9c477a	0.076308206
194	0xbe17d5d9	-0.1482767
195	0x3d329695	0.043600637
196	0xbd8e978d	-0.069625
197	0xbcc079f2	-0.023495648
198	0x3e86fec5	0.2636625
199	0xbda7d0de	-0.08194135
200	0xbe73b269	-0.23798527
201	0xbe15aba6	-0.1461626
202	0x3e1e6155	0.15466817
203	0x3d832bce	0.064048395
204	0xbe423c2b	-0.18968265
205	0xbd89357a	-0.06699653
206	0x3cc39e0f	0.02387908
207	0x3e4ddac1	0.20102979
208	0x3e7068dc	0.234775
209	0x3d5dc04f	0.054138478
210	0x3d687619	0.05675325
211	0x3e24659e	0.16054389
212	0xbde45bcd	-0.11150322
213	0xbdd0482c	-0.10170016
214	0xbe679d87	-0.22618686
215	0x3e6966e3	0.22793154
216	0xbda442d1	-0.08020557
217	0xbd7628fe	-0.060097687
218	0x3e7a20c5	0.24426563
219	0xbe3ff32e	-0.1874511
220	0xbd2c0dc1	-0.042005304
221	0xbe6c401e	-0.23071334
222	0xbe6a5434	-0.22883683
223	0x3e3c29cc	0.18375319
224	0xbe74d57e	-0.23909566
225	0xbd1e5d08	-0.03866294
226	0xbe1a77c8	-0.15084755
227	0xbe529cce	-0.20567629
228	0x3e15302e	0.1456916
229	0xbd147917	-0.036248293
230	0x3d807c3d	0.062736966
231	0xbd7f9f9b	-0.06240807
232	0xbcdc4838	-0.026889905
233	0x3e834d73	0.25645027
234	0xbe07a9bb	-0.13248341
235	0x3e264805	0.16238411
236	0x3ea08659	0.313525
237	0xbe608302	-0.21924976
238	0x3c8b18f4	0.016979672
239	0xbe41ae44	-0.18914133
240	0x3d769285	0.060198326
241	0xbe95c59c	-0.29252326
242	0x3e714b91	0.23563983
243	0x3d711736	0.058860026
244	0x3dbc0c71	0.091820605
245	0xbc8f1b17	-0.017468972
246	0xbe33022f	-0.17481302
247	0xbe19dae0	-0.150249
248	0xbc0b365b	-0.008496846
249	0x3e72d1cf	0.23712848
250	0xbda594a9	-0.08084995
251	0xbd41bcb9	-0.04729912
252	0xbc2639ab	-0.010145585
253	0xbbe094bf	-0.0068536694
254	0x3e7eabd0	0.24870229
255	0xbda2c706	-0.07948117

module.linear_1.bias f4 [128]
0	0x3bbccaad	0.0057614655
1	0xbda7f5ec	-0.08201203
2	0x3dbdce77	0.09267896
3	0xbdd99774	-0.106245905
4	0x3ddb2c09	0.107017584
5	0x3e0a4b0c	0.1350519
6	0xbc8c0240	-0.017090917
7	0x3d79b500	0.06096363
8	0xbbb91d04	-0.005649211
9	0xbd30f38a	-0.043201007
10	0x3dfcfb38	0.12352604
11	0xbe40bdd9	-0.18822421
12	0xbe061b43	-0.13096337
13	0x3e2c9284	0.16852766
14	0x3e0f51db	0.13996069
15	0xbe1907cc	-0.1494438
16	0xbc458160	-0.012054771
17	0x3ce92138	0.028458223
18	0xbe1b42cf	-0.15162204
19	0x3cef6dcb	0.029227158
20	0xbba86402	-0.005138875
21	0xbe0c421c	-0.13697094
22	0x3d49dd4a	0.049283303
23	0x3de3472d	0.1109756
24	0x3e02c24e	0.12769434
25	0xbde4d30d	-0.11173067
26	0x3d338b50	0.04383403
27	0x3dd0cc06	0.101951644
28	0x3e39341a	0.18086281
29	0xbd841c58	-0.06450719
30	0xbcb29b60	-0.021802604
31	0xbd8eb93d	-0.06968925
32	0xbca6fb3e	-0.020383473
33	0x3e09cd36	0.13457188
34	0xbdb0f421	-0.08640314
35	0x3e1de76c	0.15420312
36	0x3d9846ef	0.074354045
37	0x3e34dbd1	0.17661978
38	0x3e5cce92	0.21563175
39	0x3db7e1ac	0.0897859
40	0xbce5e1b0	-0.028061718
41	0x3ddab367	0.106787495
42	0xbe4928d8	-0.19644487
43	0x3d807582	0.06272413
44	0x3db98e17	0.090603046
45	0xbdc28fc5	-0.09500078
46	0x3e2fb4b2	0.17158774
47	0xbde3de87	-0.11126428
48	0xbd8722de	-0.06598447
49	0xbda9da3a	-0.082935765
50	0xbd7272e0	-0.059191585
51	0xbd0621eb	-0.03274719
52	0xbe32c824	-0.1745916
53	0x3db87f0e	0.09008609
54	0x3da99d64	0.08281973
55	0x3daf69da	0.085651115
56	0xbd655109	-0.055985484
57	0xbbec83f5	-0.007217879
58	0xbd9856f1	-0.07438458
59	0xbe184df2	-0.14873484
60	0xbc9b4e2d	-0.018958176
61	0xbb12fd0f	-0.0022428667
62	0x3b2a892e	0.0026021707
63	0xbe269762	-0.16268685
64	0xbcb58b46	-0.022161137
65	0xbe0f6039	-0.1400155
66	0x3c2b9fff	0.010475158
67	0xbda178a0	-0.078843355
68	0xbe0c3002	-0.13690189
69	0x3cd3bca4	0.025846787
70	0x3c451761	0.0120295
71	0xbe1e4a52	-0.15458038
72	0x3ba37183	0.004987897
73	0x3e0d7bf2	0.13816813
74	0xbda486ad	-0.080335
75	0xbe2fd00e	-0.1716921
76	0x3e1cd88a	0.15316978
77	0xbd100f48	-0.035170823
78	0x3e1077a4	0.1410814
79	0xbbe224df	-0.006901368
80	0x3dae3f12	0.085081235
81	0xbd0292a5	-0.031878132
82	0xbc1c0187	-0.0095218485
83	0xbe17e016	-0.14831576
84	0x3e28aa43	0.164712
85	0xbe270d30	-0.16313624
86	0xbdfde972	-0.12398042
87	0x3e267ddc	0.16258949
88	0xbdba5d94	-0.0909988
89	0x3cc3c82d	0.023899162
90	0x3cdb1fc9	0.026748555
91	0xbe212ffa	-0.15740958
92	0x3d1f8320	0.03894341
93	0xbcf253cc	-0.029580973
94	0xbbb8abac	-0.0056356993
95	0x3dbdfdc4	0.092769176
96	0xbd9f12f4	-0.07767287
97	0xbcd9330a	-0.026513595
98	0xbd76826a	-0.060182966
99	0xbd7b5a1b	-0.06136523
100	0xbd7fd9ac	-0.062463447
101	0x3e110bcb	0.14164655
102	0x3d44642a	0.047947086
103	0x3dedfdad	0.116206504
104	0xbdfb52b7	-0.12271636
105	0xbd1ecccf	-0.03876954
106	0x3e44726d	0.19184275
107	0xbd88af37	-0.066740446
108	0x3dee8e0e	0.116481885
109	0x3dd823a6	0.105536744
110	0x3d1c5280	0.038164616
111	0x3e16cbc3	0.14726166
112	0xbcabd6a5	-0.020976374
113	0x3e0ce669	0.1375977
114	0x3d964e81	0.07339192
115	0x3ddc6833	0.10762062
116	0xbde810f1	-0.11331356
117	0x3de37a0e	0.111072645
118	0xbda59569	-0.08085138
119	0xbd453ec7	-0.048155572
120	0x3db569d4	0.08858076
121	0x3e189fa0	0.14904642
122	0xbd936aca	-0.07198103
123	0xbdb313a0	-0.087439775
124	0xbdc657d8	-0.096847236
125	0x3cc3dd15	0.023909131
126	0x3d22c222	0.03973592
127	0x3d896add	0.06709836

module.linear_2.weight f4 [1, 128]
0	0xbd6aa91f	-0.057290193
1	0xbd8182b7	-0.0632376
2	0xbcbe38c3	-0.023220425
3	0x3c0e8df6	0.008700838
4	0x3bb65029	0.005563755
5	0xbb3dc4f8	-0.0028956514
6	0xbc857089	-0.016289013
7	0x3d1c238b	0.038119834
8	0x3cf17d34	0.029478647
9	0x3c9c246e	0.01906034
10	0xbd686047	-0.056732442
11	0xbcee4e66	-0.029090118
12	0xba894beb	-0.0010474896
13	0x3d299fef	0.04141229
14	0x3aa1cb9c	0.0012344006
15	0xbce8e58b	-0.028429767
16	0x3d034975	0.032052476
17	0xbda45915	-0.080248035
18	0x3d0af336	0.03392335
19	0x3c3e4662	0.01161346
20	0x3cb8fd9b	0.022581866
21	0x3c1f573d	0.009725389
22	0xbd71d8cd	-0.059044648
23	0xbd2b563b	-0.041830283
24	0x3d7c75be	0.061635725
25	0x3c3f000a	0.011657724
26	0x3d196592	0.03745038
27	0x3c7146a1	0.014726312
28	0x3afb8878	0.0019190451
29	0x3cc2b89f	0.023769675
30	0xbd113f72	-0.035460897
31	0xbd7286ee	-0.05921071
32	0x3caf9894	0.02143506
33	0x39ed68a0	0.00045282114
34	0xbd1a9f67	-0.037749674
35	0xbb984cd5	-0.004647831
36	0x3caa65f7	0.020800574
37	0x3d625109	0.055253062
38	0x3b883e7a	0.0041578384
39	0x3d5f43c9	0.054508004
40	0xbc56744f	-0.013089254
41	0xbd9f4369	-0.07776529
42	0xbb1ffac6	-0.0024410947
43	0xbc2b37ac	-0.010450285
44	0xbc83ed41	-0.016104342
45	0xbc82c733	-0.015964126
46	0x3c116216	0.008873483
47	0xbc1dbe4e	-0.009627892
48	0x3ceb29a1	0.028706374
49	0x3cde3548	0.027125016
50	0xbd19f0eb	-0.037583273
51	0x3d11f246	0.03563144
52	0x3b9c785b	0.0047750897
53	0x3ba65023	0.005075471
54	0x3c72a66d	0.014810187
55	0x3b1c76b6	0.0023874468
56	0x3b20c84c	0.0024533449
57	0x3dad631a	0.08466168
58	0xbce758a1	-0.028240504
59	0x3c0bbc6f	0.008528813
60	0x3d140d65	0.036145587
61	0x3d2134ac	0.039356872
62	0xbd5c81f4	-0.05383487
63	0xba8fd20b	-0.0010972632
64	0x3ccd9ad9	0.025098251
65	0x3c4259b7	0.01186221
66	0x3c3922cf	0.011299803
67	0xbdcc48e1	-0.09974838
68	0xbc44a381	-0.012001873
69	0x3bbc4a36	0.0057461513
70	0x3c607258	0.013699137
71	0x3c24241b	0.010018374
72	0xbd7b179a	-0.061301805
73	0xbcf854ff	-0.030313967
74	0x3c9a5ffe	0.0188446
75	0xbb9d36c6	-0.0047977893
76	0xbcafdfca	-0.021469016
77	0xbbe0d3e8	-0.0068611987
78	0x3d6b8990	0.057504237
79	0xbcaffd29	-0.02148302
80	0x3d9c08ab	0.07618841
81	0x3d17d082	0.037064083
82	0x3d004b60	0.031321883
83	0x3c5572d4	0.013027865
84	0x3c0f143c	0.008732852
85	0xba33d18f	-0.0006859535
86	0xbb2de8d9	-0.0026536493
87	0x3ada6836	0.0016663137
88	0x3b8abcdd	0.00423394
89	0xbcac2ae1	-0.02101654
90	0xbd61b76e	-0.055106573
91	0xbbd4cd2e	-0.006494186
92	0xbb9c81fc	-0.0047762375
93	0xbd976b02	-0.07393457
94	0x3d26f4ca	0.040760793
95	0xbc9609d1	-0.018315228
96	0xbcde12bf	-0.027108548
97	0xbc5ff45d	-0.013669101
98	0x3c8fc4d8	0.017549917
99	0xbc00f0d8	-0.007869922
100	0xbcd3cdac	-0.025854908
101	0xbc03c49d	-0.008042482
102	0x3c7d5d3a	0.0154641215
103	0x3b3ebb54	0.0029103355
104	0xbbaab12c	-0.005209109
105	0x3cae6dc0	0.021292567
106	0xbc5f2e08	-0.013621815
107	0xbc9aa0ba	-0.018875469
108	0x3da2f086	0.079560325
109	0x3c22d17f	0.009937643
110	0xbc9239ac	-0.017849766
111	0x3c428caa	0.011874357
112	0xbd14e65f	-0.03635251
113	0xbc8d25ce	-0.01722994
114	0xbd207dea	-0.03918258
115	0x3b89c6ea	0.0042046206
116	0xbce54280	-0.027985811
117	0x3c0d01ef	0.008606418
118	0xbc42c6e1	-0.011888237
119	0x3bd78d1f	0.0065781022
120	0xbc57bd97	-0.01316776
121	0x3b9d487b	0.0047999
122	0x3ccf8e7b	0.025336495
123	0x3cf4d9d5	0.029889027
124	0x3cd2e71b	0.025744965
125	0x3d77a87c	0.060463414
126	0xbc5936e7	-0.013257719
127	0x3c6ea2bd	0.014565167
